models/signal_cnn_1d.onnx (onnx, 15374 bytes, 4 tensors)

conv1.bias f4 [16]
0.19055283 -0.27591917 -0.1784851 -0.06175027 0.12984723 -0.2832565 -0.1112585 -0.17533474
0.02829981 -0.06557905 -0.04051073 -0.18513864 -0.19698085 -0.17239003 -0.08310111 -0.24111347
00000000: 4820 433e 4745 8dbe ccc4 36be daed 7cbd
00000010: acf6 043e ff06 91be 7fdb e3bd f38a 33be
00000020: 01d5 e73c 4f4e 86bd 94ee 25bd fc94 3dbe
00000030: 59b5 49be 0387 30be ea30 aabd 73e6 76be

conv2.bias f4 [32]
-0.050052 0.03933941 0.15790038 0.1578086 0.05279856 0.0053367885 0.16837673 0.056766227
0.107600875 -0.011022458 -0.012271386 -0.047527324 0.1597775 0.044984393 -0.07422309 0.052871197
-0.009151568 0.023288911 0.058690593 -0.010177108 0.07908379 -0.01910404 0.049871184 -0.058278877
0.061774414 0.15661938 0.11704539 0.07597483 0.10749549 0.14815566 0.0378819 0.080746785
00000000: 5303 4dbd 5c22 213d a3b0 213e 9498 213e
00000010: 4e43 583d 3ae0 ae3b f36a 2c3e b483 683d
00000020: d95d dc3d 8a97 34bc ec0d 49bc 03ac 42bd
00000030: b79c 233e 8e41 383d 4702 98bd 788f 583d
00000040: 75f0 15bc 63c8 be3c 8c65 703d e3bd 26bc
00000050: aff6 a13d 1380 9cbc ba45 4c3d d5b5 6ebd
00000060: 2b07 7d3d d560 203e 7eb5 ef3d b198 9b3d
00000070: 9826 dc3d 1eb6 173e 0d2a 1b3d 925e a53d

conv3.bias f4 [64]
0.07029896 0.097320765 -0.07415065 -0.07206279 0.038684346 0.095850386 0.11280873 0.081594616
0.028294582 0.056723066 -0.04731197 -0.080772445 -0.10083742 -0.089459695 0.0687773 0.07794606
0.052408297 -0.06661677 0.057555433 0.095968716 -0.0076571284 0.017996663 -0.052274413 -0.025278125
0.087872565 -0.02066517 -0.0027311544 0.040672936 -0.0015646741 -0.015509043 0.008379897 0.09484433
-0.0033176749 0.04228702 -0.05362515 0.116240755 0.030808516 -0.03340595 -0.09060188 -0.03835463
-0.04526213 0.047557928 0.06610245 -0.022267375 0.052340463 0.0033843638 -0.05982062 -0.07084373
-0.0051881657 0.095163345 0.1254232 0.10777804 0.01821621 0.07396633 -0.023696767 0.14861867
-0.047911916 -0.038012806 -0.11592689 0.008354056 -0.08476714 -0.055770002 0.024574855 0.11007914
00000000: e7f8 8f3d 1c50 c73d 4cdc 97bd a895 93bd
00000010: 7a73 1e3d 354d c43d 4308 e73d 141b a73d
00000020: 0aca e73c 7256 683d 32ca 41bd 066c a5bd
00000030: d983 cebd a536 b7bd 1ddb 8c3d 2fa2 9f3d
00000040: 15aa 563d 606e 88bd 3fbf 6b3d 3f8b c43d
00000050: a6e8 fabb bd6d 933c b21d 56bd 1214 cfbc
00000060: 88f6 b33d 014a a9bc 2bfd 32bb aa98 263d
00000070: c015 cdba a419 7ebc d64b 093c be3d c23d
00000080: 596d 59bb 2735 2d3d 0ca6 5bbd a20f ee3d
00000090: 2462 fc3c add4 08bd 7a8d b9bd bf19 1dbd
000000a0: c964 39bd 1acc 423d b960 873d 126a b6bc
000000b0: f462 563d 34cc 5d3b 7706 75bd 8416 91bd
000000c0: 7d01 aabb 00e5 c23d f06e 003e bcba dc3d
000000d0: 293a 953c a97b 973d b91f c2bc 7e2f 183e
000000e0: 493f 44bd 51b3 1bbd 146b edbd 73df 083c
000000f0: 659a adbd 166f 64bd 3551 c93c 2c71 e13d

fc.bias f4 [5]
0.1291889 0.00076404103 0.059306026 -0.11699531 0.065012135
00000000: 184a 043e ed49 483a e0ea 723d 3d9b efbd
00000010: 1525 853d
