models/tiny_cnn_2d.onnx (onnx, 16431 bytes, 3 tensors)

conv1.bias f4 [32]
000000 83 e8 24 bf 54 6d 90 bd 69 55 0b be 68 2c ee bc
       -0.64417285 -0.07052103 -0.136068 -0.029073909
000010 16 c8 e1 be 17 4a 4a bc e0 67 08 bc c0 08 c7 be
       -0.44097966 -0.012346766 -0.008325547 -0.38873863
000020 60 e5 dd be f3 dd 64 3f e6 85 99 bd cc 0f 9b bd
       -0.43339062 0.8940117 -0.07496242 -0.075713724
000030 43 42 2a be 70 e7 f5 bd 80 3a 5b 3b 88 ae 5e be
       -0.1662684 -0.12007034 0.0033451617 -0.21746266
000040 0e ba 82 be 25 44 17 be 99 22 8a be 0d 29 7b bc
       -0.25532573 -0.14772089 -0.2697952 -0.0153296115
000050 65 2b 07 bf ee ee 08 be ea d8 3e 3f 64 2c bc be
       -0.5280059 -0.13372394 0.74549735 -0.36752617
000060 e4 39 b7 be c5 b8 81 be 0a 23 00 be bd c5 24 3d
       -0.35786355 -0.2533628 -0.12513366 0.04022764
000070 a0 24 03 bf 28 37 0e bf 1b cd ae bd 93 1b 9f be
       -0.5122776 -0.5555291 -0.085352145 -0.31075725

conv2.bias f4 [64]
000000 30 b8 e4 3c b4 29 8b 3e 1c 10 43 3e 34 d2 e5 3e
       0.027919859 0.27180254 0.19049114 0.44886935
000010 f0 44 4a bd 60 9d 56 3e 6b de db 3e 4c 90 31 3f
       -0.04938215 0.20958471 0.4294313 0.69360805
000020 da 8d af 3f 30 b2 35 3f b8 17 b4 3f b6 43 8d 3f
       1.3715165 0.7097502 1.4069738 1.1036289
000030 80 6a 35 bf e9 42 9a 3e 4e fa 90 be 6c 0b 89 3e
       -0.7086563 0.30129173 -0.28315967 0.26766527
000040 0c 96 49 3f 7e 2c 45 be a1 2c 31 3f 16 05 29 3f
       0.7874458 -0.19255254 0.69208723 0.66023386
000050 87 c3 e0 be f0 31 a8 be c3 9a c3 3e 09 e9 7a 3f
       -0.43899176 -0.328506 0.3820401 0.98011833
000060 f8 4d cb 3e 30 ac 1f 3f 37 bd f8 3e 90 c6 2e 3f
       0.39707923 0.6237211 0.4858186 0.6827173
000070 bc 38 25 3f 52 2c 2c 3f 34 95 7e 3e ec 2b 8e 3e
       0.64539695 0.6725513 0.24861604 0.27767885
000080 48 2b 0c 3f 6d a3 07 3f 24 19 b5 3d 76 f6 60 bf
       0.5475354 0.5298374 0.08842686 -0.8787607
000090 a3 cf 19 3f e4 a0 0f 3e 91 76 99 3e 2a df 27 3f
       0.60082453 0.14026219 0.2997327 0.65574896
0000a0 80 a9 8d bd f6 0f 13 be 00 af a7 bc c2 8f bc 3e
       -0.06917095 -0.14361557 -0.020469189 0.36828429
0000b0 f4 2a 53 3e 11 36 1c 3f d0 0f 48 3f 63 7c 0c 3f
       0.20621854 0.6102 0.7814913 0.548773
0000c0 60 2c 94 bc 40 8a 6d be c6 4f d2 bf 50 90 ea 3d
       -0.018087566 -0.2319727 -1.6430595 0.11453307
0000d0 c6 03 d8 3e 7c fb f7 be aa 00 60 be 84 68 6a 3e
       0.4219038 -0.48434055 -0.21875253 0.22891432
0000e0 d5 b6 94 3e 7c ad 08 3f 09 01 86 3e e0 63 86 3e
       0.2904574 0.53389716 0.26172665 0.26248074
0000f0 09 04 df 3e 80 27 ee bd 25 a7 13 3f 74 27 6d 3e
       0.43557766 -0.11628628 0.5767692 0.23159581

fc.bias f4 [10]
000000 1a cc 1c 3d 12 dd bf 3c 90 0f 6d 3d d8 03 85 3d
       0.038280584 0.023420844 0.05787617 0.06494874
000010 67 e4 8d bd 9a f1 56 3d 7a 74 ad 3d 0e 0a 14 3d
       -0.0692833 0.052476503 0.08469482 0.0361424
000020 3a 35 34 bd fa 1f 2d 3d
       -0.043996073 0.042266823
